deep_emotion-100-128-0.005.pt (torch, 275305 bytes, 24 tensors)

conv1.weight f4 [10, 1, 3, 3]
000000 dd e3 93 3e 90 ef 49 3f 78 a8 47 3e 62 74 97 bd
       0.28884783 0.7888117 0.1949786 -0.07395245
000010 27 d7 59 bf b0 7a c2 3e 23 37 52 bf fb e8 2f bf
       -0.8509392 0.37984228 -0.8211538 -0.68714875
000020 c9 25 28 3f 01 2e 76 3d 68 89 07 bd 91 61 16 3e
       0.65682656 0.060102466 -0.033090025 0.14685656
000030 b9 1d 1c 3e b2 80 3f be 87 97 f7 3b 83 5a d7 bc
       0.15245713 -0.18701437 0.0075559053 -0.026288277
000040 51 36 09 3e 34 ea 8f bd 67 4c 5d 3f ac 65 1c bf
       0.13399626 -0.070270926 0.86444706 -0.6109264
000050 36 51 7d be 9c bd c4 be 70 1e 97 be ed 01 13 40
       -0.24738011 -0.3842591 -0.2951541 2.2969925
000060 e5 6f 66 bf 3c 4b d5 be e8 b7 8a be 48 90 7c 3f
       -0.9001449 -0.41658962 -0.27093434 0.98657656
000070 53 a3 0f 3f ed 06 d5 3c 06 10 48 3e 39 17 80 be
       0.5610859 0.026004279 0.19537362 -0.25017717
000080 11 72 69 be f3 38 ad bf 92 81 88 bf f8 ed 02 bf
       -0.22797419 -1.3533005 -1.0664542 -0.5114436
000090 35 f6 f1 bc 60 69 63 bf b6 9c 95 bd 33 e3 67 bf
       -0.029536346 -0.88832664 -0.07305281 -0.90581053
0000a0 98 e9 3d bf ad 6c 15 bf ed ff 50 3f 1c 52 c4 3f
       -0.7418456 -0.5836895 0.8164051 1.5337558
0000b0 30 1e 3b 3f 8d 9c 6e be 39 74 62 bf c1 7e 3d be
       0.7309294 -0.23301907 -0.8845859 -0.18505384
0000c0 2a 06 93 3f e9 2b bf be 34 7d 8c bf ab 52 5b 3f
       1.1486256 -0.37338188 -1.0975709 0.85673016
0000d0 de c6 29 3f de f5 e5 3d 03 3e c8 3d 7a fb d2 bd
       0.6631907 0.11228536 0.09777453 -0.103018716
0000e0 ab bd 21 3f 82 d4 bf bf c8 0b 1a bf 94 9f 91 3f
       0.63180035 -1.4986727 -0.60174227 1.1376824
0000f0 bb a8 a2 bf 11 ee ed 3d 5e 21 a6 3f 04 cf 59 3f
       -1.2707742 0.11617673 1.2978933 0.85081506
000100 6b 5e a3 3f 84 31 68 3f 03 9c 25 be 35 b5 df 3d
       1.2763189 0.90700555 -0.16172795 0.109232344
000110 ca 7b ec be 28 f0 84 bf 27 ec d3 be a1 46 83 bf
       -0.46188194 -1.038579 -0.41391107 -1.0255929
000120 2d 82 a6 3f f8 0c 87 3e ee 64 c7 bf c3 4a a0 3e
       1.3008476 0.26377082 -1.5577676 0.3130704
000130 48 0b 99 be f3 d4 11 bf fe 74 8a bf 44 93 04 3f
       -0.2989142 -0.5696556 -1.0816953 0.5178721
000140 45 2c a5 3f fe c5 00 3f 58 83 db bd 2e 4e 89 bf
       1.2904135 0.5030211 -0.10718411 -1.0726984
000150 e4 a7 d2 3f ff 15 55 3f 2e 2a c0 bf c5 4f 25 3f
       1.6457486 0.8323669 -1.5012872 0.64574844
000160 f2 0f f4 3c 07 c6 88 bf
       0.02979276 -1.0685433

conv1.bias f4 [10]
000000 2c 7a e9 3d 40 c4 26 bf b5 3a 4f 3e da 81 82 bf
       0.114002556 -0.65143204 0.20237239 -1.0195878
000010 9a 31 c1 3e 91 a6 44 bf b6 6b 52 3e 68 65 71 3e
       0.37733155 -0.7681666 0.20548901 0.2357384
000020 e3 50 06 3e 9f 53 ba 3c
       0.13116793 0.022744952

conv2.weight f4 [10, 10, 3, 3]
000000 90 4c 16 3f 84 ef 9f 3e 32 2a 15 3f 35 5e 27 bf
       0.58710575 0.31237423 0.5826751 -0.65378124
000010 ba 68 9a 3e d7 22 84 3f f8 e6 c7 bf 19 35 a3 bf
       0.30158025 1.0323132 -1.5617361 -1.2750579
000020 b4 96 86 bf a6 21 d4 3d f6 c3 17 3e 4c c1 67 3e
       -1.0514741 0.103579804 0.14820847 0.2263233
000030 b5 ef 27 3d 44 9c 13 3e 59 32 9e 3d 88 70 fd 3d
       0.041000087 0.1441508 0.07724447 0.12374979
000040 4b 99 c6 3d 68 c2 fa 3d 64 6e ca 3f ae a8 8f 3f
       0.09697207 0.12244111 1.5814939 1.1223352
000050 dd 29 e5 3f dc 66 fe bf 88 4c 36 bf f2 90 6c bb
       1.7903401 -1.987514 -0.7121053 -0.0036097136
000060 41 9a 90 bf bd 56 a5 bf 16 f0 57 bf 25 ac e9 be
       -1.1297075 -1.2917095 -0.8435072 -0.45639148
000070 db ef 4e bf cd a3 c8 3e 21 2a fb be c4 80 d4 be
       -0.8083474 0.3918747 -0.4905558 -0.4150449
000080 26 9c f1 be 20 1e e6 3d 77 8c 7c 3f 25 6e 79 bd
       -0.47189444 0.11236215 0.9865183 -0.060896058
000090 32 ee 1d bf 2f 5d d1 bf 0b d3 e7 bf fc 76 a3 3f
       -0.6169158 -1.6356562 -1.811128 1.2770686
0000a0 2a bb 37 3f 3b 9f 92 3e 1f 68 8a bf c1 af 00 be
       0.71769965 0.28637108 -1.0813025 -0.12567045
0000b0 b9 83 e5 3e d9 23 82 bf 76 8a 94 be ba 58 88 3e
       0.4482706 -1.016719 -0.29011887 0.26630193
0000c0 a7 59 a2 bf 25 65 a0 3e bf 1d f4 3e 7c 3f c1 bf
       -1.268361 0.31327167 0.47678944 -1.5097499
0000d0 65 84 5d bf 03 3a 7c be 7f c0 ea 3e d5 08 57 3e
       -0.86530143 -0.24631505 0.45849988 0.20999463
0000e0 c9 9a dd 3e 9d 85 1a 3e 78 91 55 3d a2 63 90 be
       0.43282154 0.15090032 0.052140683 -0.28201014
0000f0 f6 04 0c be a7 ca 27 3f 16 b8 97 bf 44 79 8b 3f
       -0.13673767 0.655436 -1.1853054 1.0896382
000100 be 12 06 3f ef 84 f5 3c b4 9f 8a bf 47 a8 eb 3b
       0.5237235 0.029970614 -1.0829988 0.007191691
000110 ea 41 a8 3f 4a ef 13 c0 da b4 9c bf 81 b0 b3 bf
       1.3145115 -2.31148 -1.2242692 -1.403824
000120 35 cb d1 3c d6 54 61 3e 01 3c 74 3f b5 91 56 bf
       0.025609592 0.22005019 0.9540406 -0.8381608
000130 52 ac 71 bf 80 0c 8a bd 8f e7 11 bf 81 c0 70 3e
       -0.94403565 -0.067406654 -0.56993955 0.23510934
000140 f6 44 c4 3b 49 f4 85 3e 22 f5 16 bf 2f 52 69 bf
       0.005989666 0.26162937 -0.58967793 -0.9114103
000150 63 4e c0 be 3f b8 d6 bd a1 71 7c bf b9 1a 13 3f
       -0.37559804 -0.10484361 -0.98610884 0.5746265
000160 af 18 89 3f 03 ab 2f 3f 24 7b e6 bd 6b 99 58 3d
       1.0710658 0.6862032 -0.11253956 0.052880686
000170 9f 8f 36 bf e6 c8 90 3f b5 65 65 3e 5f d0 a2 be
       -0.713129 1.1311309 0.2240208 -0.317996
000180 27 30 2a bf 85 4f 70 bd 6c a7 22 3f d0 62 a0 3e
       -0.66479725 -0.058669586 0.63536716 0.31325388
000190 d8 20 2e 3e 90 c7 8e 3e bc c8 45 3e 17 c8 a9 3d
       0.17004716 0.2788663 0.19314855 0.08290117
0001a0 29 bf 42 3e 70 93 82 3e 69 80 4d 3e 28 f8 08 3e
       0.19018234 0.2550311 0.20068516 0.13375914
0001b0 63 c7 d0 be e4 92 66 be fc 12 5f bf f5 72 1b bf
       -0.4077712 -0.22516972 -0.8713834 -0.60722286
0001c0 52 46 20 bf e4 85 47 bf fe 1e af 3f 47 c5 98 3f
       -0.626073 -0.77938676 1.3681333 1.1935204
0001d0 05 ad 92 3f a3 69 a8 3f dc b3 46 3f eb 82 82 bf
       1.1459051 1.3157238 0.77618194 -1.0196203
0001e0 86 4e 61 3f d6 f7 6b 3e 34 d8 1f be 61 8e 30 bf
       0.8801044 0.2304376 -0.15609819 -0.6896725
0001f0 d2 7a a7 bf f1 d3 84 bf ec ad ca bf 28 09 93 bf
       -1.3084357 -1.0377179 -1.5834327 -1.1487169
000200 c6 cd 0b bf 7f 88 e2 3e 65 f3 89 3f 56 4b 80 3f
       -0.5461086 0.44244763 1.0777403 1.0022991
000210 c5 50 97 3f cd 37 d1 3d 8b 02 73 be d9 49 db 3f
       1.1821524 0.10215721 -0.23731439 1.7131912
000220 40 5e 9e 3f 1f 46 22 3f de 50 5c 3f 49 8b 7e be
       1.2372513 0.63388246 0.86060894 -0.2485782
000230 7f 36 c3 bf ad b4 52 3e 18 69 8d 3d 77 6f 90 3d
       -1.5251006 0.20576735 0.06904811 0.0705251
000240 1f 18 ab bf d5 51 41 3e 93 85 95 be 54 dd bc 3e
       -1.3366736 0.18878873 -0.29203472 0.3688761
000250 24 45 57 3f 34 64 50 be 38 94 64 3f 6a 66 1e 3e
       0.84089875 -0.20350724 0.89288664 0.15468755
000260 de e7 f6 3d 18 8c 75 bc 6f 76 2e 3f 63 dd b0 3e
       0.12055944 -0.014987014 0.68149465 0.34543905
000270 ba 71 a0 3f 57 bf 3d 3e 3e 1a ab be aa db 08 bf
       1.2534707 0.18530022 -0.3341846 -0.5346018
000280 8b ba 40 c0 74 4a 15 c0 7d a4 c5 bf 8c d0 5d be
       -3.0113857 -2.3326693 -1.5440823 -0.21661586
000290 1b d4 0f be ac 80 b8 3f e1 5e b3 3f 3a cf 68 3e
       -0.14045756 1.4414268 1.401333 0.227353
0002a0 8a 3e 33 3f a1 66 de bf 98 26 ee be dc dd 5d 3e
       0.700173 -1.737507 -0.4651382 0.21666664
0002b0 d9 0c 8e 3e 4d 9d 65 3e f3 2d 0a bf 84 f2 85 bf
       0.27744177 0.22423287 -0.5397636 -1.0464635
0002c0 ed d4 96 bf 0b 7a 05 bf 75 bc 97 3f 6e c6 d0 3f
       -1.178373 -0.5213935 1.1854388 1.6310556
0002d0 15 10 10 3e 2b d1 9c bf 27 9d 3f 3e b8 9a a6 bf
       0.14068635 -1.2251333 0.18712293 -1.3015966
0002e0 78 4e c4 3d 91 d4 5e 3f 88 ef 20 3e 5c 19 8b 3f
       0.09585279 0.870431 0.15716374 1.0867114
0002f0 55 f1 50 3e b1 03 97 be 10 01 cd be 86 06 eb bd
       0.20404561 -0.29495004 -0.40039873 -0.114758536
000300 fe e2 7e be 95 30 a2 be 82 8e 74 be 75 3c 45 bd
       -0.24891278 -0.3167769 -0.23882487 -0.04815336
000310 86 c4 93 bc 61 d0 11 3e 6c 8e 1a bf 30 99 ca bd
       -0.018038046 0.14239646 -0.6037357 -0.098924994
000320 aa 2a 6d 3f 1b fc a7 bf de 15 f9 bb e6 87 50 3f
       0.92643225 -1.3123811 -0.0076014837 0.81457365
000330 f1 a9 04 bf c8 66 7e 3f a5 f5 c4 3e c5 4d 6b 3f
       -0.5182181 0.9937558 0.38468662 0.9191554
000340 02 0e 8e be 81 3c 90 be bf d4 87 be b5 0a 0b be
       -0.27745062 -0.2817116 -0.265295 -0.13578303
000350 66 8a 0e 3e 07 b2 22 bf 0a 8f e5 3e 6e 07 ea 3e
       0.13919982 -0.635529 0.44835693 0.45708793
000360 b8 0e 94 3e b6 a5 a7 bf 17 16 43 3e a6 e5 8c bf
       0.2891748 -1.3097446 0.19051395 -1.1007583
000370 7b ba bf be cf 2a 36 3f 01 03 d1 bf 3d ca 81 3c
       -0.3744696 0.7115907 -1.6329042 0.015843505
000380 d5 63 35 3f 26 d9 b1 3e 53 a9 70 bf 38 de 31 be
       0.70855457 0.34735984 -0.9400837 -0.17369926
000390 a4 42 32 3f 9e 2f c6 3e 2a 35 8a 3e 34 32 88 be
       0.69632936 0.38708204 0.26993686 -0.26600802
0003a0 cb 92 e8 be d3 ee 87 bf 45 e5 2e bf d2 d2 09 bf
       -0.45424494 -1.0619758 -0.6831859 -0.5383731
0003b0 7a 48 69 3f e8 50 fe bf 41 b3 8f bf 5b f8 94 3f
       0.91126215 -1.9868441 -1.1226579 1.1638292
0003c0 ff 85 79 bf 83 ed 23 3f d7 d3 c7 3f 2c 36 5b 3e
       -0.97470087 0.6403429 1.5611523 0.21407384
0003d0 64 c1 89 3d e4 da 49 bd 08 37 f3 3c 58 fa 66 3e
       0.067263395 -0.049281016 0.029689327 0.22556436
0003e0 96 7e 14 bf c0 65 dc 3e 21 b7 80 be f8 21 b8 bf
       -0.58005655 0.4304638 -0.25139716 -1.4385366
0003f0 4a 47 19 bf 5f b0 1a 3f 94 91 92 3e 0e 64 e3 be
       -0.59874403 0.6042537 0.28626692 -0.44412273

conv2.bias f4 [10]
000000 3e 49 0c 3f 07 aa ba be 25 1b 51 3e f9 5e 7d 3e
       0.5479926 -0.36457846 0.20420511 0.2474326
000010 d6 3b e6 3f 56 29 f9 bd b2 a6 31 be 77 a7 88 bc
       1.798701 -0.12166087 -0.17348745 -0.016681416
000020 9a 78 95 3f 9d 6d 93 3e
       1.167743 0.28794566

conv3.weight f4 [10, 10, 3, 3]
000000 d0 1c 64 3f 24 e2 2c 3d 96 9f 7b be 11 95 8e 3f
       0.89106464 0.042207852 -0.24572596 1.1139241
000010 01 91 78 3f ce 32 9b be 20 05 6f 3f cc cb 67 3e
       0.9709626 -0.30312198 0.93367195 0.22636336
000020 57 3b 06 bf b7 47 cd 3d 13 d8 a3 bf 29 31 b1 bf
       -0.52434295 0.10023444 -1.2800316 -1.3843127
000030 ce c4 a6 bf 0c fb 40 bf 88 03 2b bf 47 9f a5 be
       -1.302881 -0.7538307 -0.66802263 -0.3234808
000040 0b 39 60 3e 27 34 aa 3e 6c a2 24 3f 8e 37 81 3f
       0.2189676 0.33242914 0.64310336 1.0095079
000050 13 d2 eb 3f 26 fe bf 3e 5f 91 63 3d 5c 80 0b 3f
       1.8423485 0.37498587 0.05555856 0.54492736
000060 99 88 a7 bf 5c 66 ae bf ea 32 da be c1 73 14 3e
       -1.3088561 -1.3624988 -0.4261697 0.14497282
000070 3f 99 a2 be 09 7c 8b bd c7 f0 45 3f 35 a5 82 bd
       -0.31757542 -0.06810767 0.7732052 -0.06379167
000080 0a 83 09 be 40 39 85 3e cb ed f9 bd d9 d4 a4 3f
       -0.13428894 0.2602024 -0.122035585 1.2877456
000090 88 70 6e 3f 10 e2 6e 3f 3d 05 eb 3d be 9c da 3f
       0.9314046 0.93313694 0.114756085 1.7079084
0000a0 47 6b 7f 3f 41 2c 00 bf 8b 95 5c be 8f 73 da be
       0.9977307 -0.50067526 -0.21541421 -0.4266629
0000b0 89 ae b5 bf d9 6b 97 bd 4e 4a 97 3d b9 c4 db 3d
       -1.4193889 -0.07393617 0.07387219 0.10730881
0000c0 0e 87 66 bd 4c b2 ab 3d 90 cc 72 bd e5 94 41 3d
       -0.056281142 0.08383617 -0.059277117 0.047261138
0000d0 bb 21 1e bd 6c f6 57 bd fc 1a 62 3c 4a 46 04 3d
       -0.038606387 -0.05272524 0.013800379 0.032293595
0000e0 0a 1f 1c 3d ff 08 18 3d 7c 6c 25 3d c2 bd 44 3d
       0.03811554 0.037117954 0.040386662 0.04803253
0000f0 6a 90 69 3c 1f 22 bb 3d 28 f5 28 3d fb d6 ee bd
       0.014255622 0.091373675 0.041249424 -0.11662098
000100 05 69 bb bc d0 28 a5 bd 47 77 27 bd d0 33 89 3b
       -0.022877226 -0.08064425 -0.040885236 0.0041870847
000110 4b a5 97 bd 68 6e 13 bd ef 7a 59 3d d2 aa 5c 3d
       -0.07404574 -0.035993963 0.053095754 0.053873844
000120 2e 8d 13 3f 13 db a5 3f 9d 7c 9f 3f 76 0b 8e 3e
       0.576373 1.2957481 1.2459904 0.2774312
000130 e0 1e 02 bf 91 85 e2 3e dc e0 d2 bd 4a 00 c2 bf
       -0.5082836 0.44242528 -0.10296795 -1.5156338
000140 39 c4 0b be b2 a9 a1 3d 7b 00 07 bf a0 12 89 3f
       -0.13649072 0.07893695 -0.5273511 1.0708809
000150 07 87 9e 3d e6 9d ff 3d 8a db 21 3f b2 cc e8 3d
       0.07740598 0.124812886 0.63225615 0.113671675
000160 81 d8 a3 bd ce 7f 3f 3f 32 76 12 3f 59 ef ff 3e
       -0.08000279 0.7480439 0.572116 0.49987295
000170 ff 28 af 3f 22 8c 30 3f ad 7e 11 3e e3 c4 a4 3e
       1.3684386 0.68963826 0.14208479 0.32181463
000180 29 ce 6e 3f 86 40 03 3f df a6 6f 3f 00 15 5e bf
       0.93283325 0.5127033 0.93614 -0.86750793
000190 81 0e a1 be 5b 34 9f bf 89 2e 47 bf 51 28 8c bf
       -0.31456378 -1.2437853 -0.7780538 -1.0949804
0001a0 0b 40 f8 be 98 89 0f bf 26 e7 37 be bd b2 5c 3e
       -0.4848636 -0.56069326 -0.1795927 0.21552558
0001b0 b1 c6 32 bf 44 22 57 bf 0d 6f 61 bf f2 13 32 be
       -0.6983443 -0.8403666 -0.88060075 -0.17390421
0001c0 50 75 19 bc 1e d1 34 be 4b fe d3 be 74 9b d8 be
       -0.009366348 -0.17657897 -0.41404948 -0.423061
0001d0 c7 96 04 bd 2e 88 97 3e 6f 2b 53 3f 76 fe da 3f
       -0.032370355 0.29596084 0.8248815 1.7108905
0001e0 91 18 7b 3f 22 1f 73 3e 88 71 fe 3e 60 f4 e1 3f
       0.9808436 0.23742345 0.49695992 1.7652702
0001f0 e0 3b 44 3f e9 00 20 bf bb d0 9f 3f 13 b6 c4 3e
       0.7665386 -0.6250139 1.2485574 0.38420162
000200 81 2c 30 3f 67 41 19 3f e3 24 a9 3f 37 7f ac 3f
       0.6881791 0.5986542 1.3214382 1.3476323
000210 50 c6 84 3f a0 77 69 3f 93 a8 26 3f b2 40 a2 3d
       1.037302 0.9119816 0.65100974 0.07922496
000220 b3 cb 71 3d bf c0 84 bc 00 d7 c2 bd 51 e7 70 3d
       0.059032153 -0.01620519 -0.09513664 0.05881435
000230 5c f9 83 bd b3 f4 00 be 89 dd 43 bd e7 e9 a9 3d
       -0.06444046 -0.12593345 -0.047818694 0.082965665
000240 72 0b 0b be ac 18 c7 bd de 96 b1 3c 4a bd d2 bd
       -0.13578585 -0.09721503 0.021678384 -0.1029001
000250 77 b8 4a 3d 42 9d 5b 3c 1f b9 ed bb 18 0f 4b bd
       0.049492326 0.013404192 -0.007254734 -0.04957494
000260 c1 39 f0 bc 3b 9f 0f be 51 cc 43 3b 7a da 79 3c
       -0.029324414 -0.14025585 0.002987642 0.015249843
000270 91 31 95 bd 19 b8 cf bd 55 5e 96 3c 62 9d ab 3d
       -0.07284845 -0.10142536 0.018355528 0.08379628
000280 ae 55 88 bd c5 db ce bd b4 bb dc 3e e7 eb 86 3f
       -0.06656967 -0.101005115 0.43111956 1.0540742
000290 0f aa 5b 3f bc fa 26 bd 2b 35 81 3f 9b 65 79 3f
       0.85806364 -0.040766463 1.009435 0.9742066
0002a0 2b 50 61 3f 3e 42 95 3f a0 93 ad 3f 31 fa 3f be
       0.8801295 1.166084 1.3560677 -0.18747784
0002b0 f0 53 82 3d 27 b8 e6 be eb c8 5c bf d2 41 14 bf
       0.06363666 -0.45062372 -0.86244076 -0.57912934
0002c0 37 b2 29 bf 07 99 e2 3e f4 ac 91 be 6a cf 43 bf
       -0.6628756 0.44257376 -0.28452265 -0.76488364
0002d0 ca ad ef bd fc d8 30 3d b9 ab 4a bd e0 3d d7 bd
       -0.117030695 0.043175682 -0.049480174 -0.105098486
0002e0 0f 9c d6 bd a0 43 90 bc 12 ff 82 bc b0 a6 30 3b
       -0.104789846 -0.017610371 -0.015990768 0.0026954822
0002f0 55 6d f6 ba 37 b1 94 3d da 27 9e bd fc a9 1e bd
       -0.0018800894 0.072603635 -0.07722445 -0.03873633
000300 42 4e 8a bd a5 df fa bc 3f 46 68 bd 17 9f 6e bc
       -0.06753208 -0.03062422 -0.056707617 -0.014564297
000310 14 ff 3a bc 05 9d 29 3d 33 c1 1e be 39 d1 6b bd
       -0.011413354 0.04140951 -0.15503387 -0.057572577
000320 16 8d 0e be 67 32 fd bd 1f 57 c9 bd 62 d8 81 bd
       -0.13921008 -0.12363129 -0.0983107 -0.063401
000330 2d d7 43 bc 97 9b 5e bc f8 8e 44 bd 66 66 1d bd
       -0.011953157 -0.0135869 -0.047987908 -0.038427733
000340 3e 70 56 3d fd 28 3f bc ef a2 b9 bd 27 7e 0f bb
       0.052353136 -0.011667487 -0.0906428 -0.002189526
000350 14 cf 5c 3b 39 cc 66 bd a3 e9 48 bd 6f 4d a9 bd
       0.0033692764 -0.056347106 -0.04905094 -0.082667224
000360 14 4b 12 be 33 2d b6 bc 37 21 df bc d7 58 5f be
       -0.14286453 -0.02223835 -0.027237518 -0.21811233
000370 ae be 92 3c 36 20 60 bc 88 cb 76 bd f9 36 bd bd
       0.017913189 -0.013679555 -0.060252696 -0.09239001
000380 ad a8 f9 3c ed fe ff 3d c0 45 b3 3d 93 30 a9 bc
       0.030475939 0.12499795 0.08753538 -0.020653045
000390 fd c7 bc bc 73 76 19 bd cc d7 57 bc 93 b5 fc bc
       -0.02304458 -0.037466478 -0.013174009 -0.0308483
0003a0 f3 8e c1 bc f6 be 99 bd e8 58 eb 3c 3a e9 d8 3c
       -0.023627734 -0.07507126 0.028728917 0.026478399
0003b0 e0 6f 9d bd 18 06 62 bc 81 69 35 bd 4f 1a aa b9
       -0.07687354 -0.013795398 -0.04429007 -0.00032444528
0003c0 4d b0 51 bd 56 64 c8 3d 58 d2 72 3d a9 3a bb bd
       -0.051193524 0.097847626 0.05928263 -0.09142048
0003d0 94 30 f0 bd 2c 8f 19 3d 77 2c 0d 3d b3 d5 b1 bd
       -0.117280155 0.037490055 0.034466233 -0.08683338
0003e0 c0 b3 ae bd 66 bb 8b bd d3 34 d3 bd fe 3f b8 bd
       -0.08530378 -0.06822853 -0.1031281 -0.089965805
0003f0 3b 66 9e be 96 f8 00 be f7 c1 01 be 61 3d 81 be
       -0.3093737 -0.12594828 -0.12671648 -0.2524214

conv3.bias f4 [10]
000000 24 13 ad 3f d0 07 cc 3f f5 ca 05 3d ae 96 e6 3f
       1.3521466 1.5939884 0.032664258 1.8014734
000010 68 df 92 40 16 e4 79 3f 08 97 8c be a4 67 3e 40
       4.5897713 0.97613657 -0.27458978 2.9750757
000020 be 2a 19 40 a9 61 3b 40
       2.3932338 2.9278357

conv4.weight f4 [10, 10, 3, 3]
000000 fe 25 66 be 84 49 d5 bf f2 d8 ec bf 65 8b 1f 3e
       -0.2247543 -1.666306 -1.8503706 0.15580519
000010 10 e7 43 bf 6c b7 5b bf 62 9b 45 3e 56 f7 24 3f
       -0.7652445 -0.85826755 0.19297555 0.64439905
000020 7a 7d 27 3f f5 a3 52 3d 72 fa 9a 3e 2d ab 8b be
       0.6542584 0.051425893 0.302692 -0.27279034
000030 7b 3e e4 3e a7 41 1d 3f b5 66 dc 3e b2 1a 1f 3f
       0.4457892 0.614283 0.4304711 0.6215011
000040 bc 0a 04 3e 82 f8 df 3e b3 e4 d0 bc 20 79 3d bd
       0.1289472 0.43744284 -0.025499677 -0.046258092
000050 f2 dc 58 be d5 bb b3 bc 28 c6 ff 3c 63 2c 98 bd
       -0.21178034 -0.021940151 0.031222418 -0.07430341
000060 7b cc 71 bd 9d 38 2f 3d 21 40 2e be 7b 6d 08 c0
       -0.0590329 0.0427786 -0.1701665 -2.1316822
000070 f8 85 23 bf 3a b5 b2 be db b1 b1 bf 4a 99 d5 3d
       -0.63876295 -0.3490389 -1.3882402 0.10429628
000080 6b be ab bd af f0 ee be af 51 c3 bf 46 57 ca bf
       -0.08385929 -0.46668002 -1.5259303 -1.5807884
000090 55 ec 5e bd 09 4b 92 bd b3 04 df 3e 2b d1 b3 be
       -0.054424603 -0.07143218 0.43558273 -0.3512052
0000a0 1b 27 0e 3f 5d 4b ec 3f a7 66 bb 3e c2 ef 0e 3f
       0.5552842 1.8460499 0.36601755 0.5583459
0000b0 6a 9a f8 3e 8c e8 16 c0 fd be 12 c0 04 ea e8 bf
       0.4855531 -2.3579435 -2.292907 -1.8196416
0000c0 38 d2 9d 3f c2 02 83 bf ae bb 06 c0 c7 ee 9e 3f
       1.2329779 -1.0235217 -2.105205 1.2416619
0000d0 0e 4e ab 3c c4 b4 17 3f 35 0e 2e bd 92 f3 bd bd
       0.020911243 0.592602 -0.042494018 -0.09274973
0000e0 a1 0c 44 be 6a ba 14 3e 3a 08 fa 3d a0 29 8d 3c
       -0.19145443 0.14524236 0.122086 0.017231762
0000f0 d2 56 7d bc dc d8 b7 3d e7 eb c7 3d 62 35 c0 3e
       -0.015462594 0.089769095 0.09761792 0.37540728
000100 12 98 f5 3e 6a cc 2c 3f 8b 7d 31 3f 2c d9 a2 3c
       0.47967583 0.6749941 0.6933219 0.019878946
000110 09 0b a0 3f 15 7f 52 3f bc 26 09 bd e2 86 28 3e
       1.2503368 0.8222516 -0.033484206 0.16457704
000120 f3 3a 30 3f c5 4e af be 36 6c 00 bf b2 25 75 3e
       0.6883995 -0.34239784 -0.50165117 0.23940161
000130 c6 76 bb be e0 ea b3 be 83 21 69 bf 03 18 9e bf
       -0.36614054 -0.35140133 -0.9106676 -1.2351078
000140 75 4d b2 be 7b 8e 51 be a2 78 0d 3f 75 83 18 be
       -0.3482472 -0.20464508 0.55262196 -0.14893897
000150 3e 58 a2 3f cb bb b6 bc c0 9d 27 3e ed 76 d1 3f
       1.2683179 -0.022306344 0.1636877 1.6364418
000160 71 86 7b be 33 56 6b 3e 91 bd f4 be 9d f8 9d be
       -0.24563004 0.22982101 -0.47800878 -0.3085374
000170 a5 21 d9 be b3 74 68 bd 91 c0 a0 3c 96 0a f3 bd
       -0.4240848 -0.056751918 0.019623073 -0.118672535
000180 16 62 44 be df 6d 54 bf 4a 3f d3 3f ca e7 79 bf
       -0.19178042 -0.8298015 1.6503689 -0.9761931
000190 d6 5f 14 bf 98 2e 4f 3f 0a e0 86 bf 2d 8a 53 bf
       -0.57958734 0.8093047 -1.0537121 -0.82632715
0001a0 ef 65 58 3f 3b dc ff bf a4 b3 4a bf c3 94 8f 3e
       0.8453054 -1.9989084 -0.7918036 0.28043184
0001b0 d4 51 ee bd 97 ff 7f bd a1 1c de bd 06 78 f7 bd
       -0.11636701 -0.06249961 -0.10845304 -0.120834395
0001c0 04 58 9e bd 23 fa de 3d 95 be b4 bd 0e 29 94 3d
       -0.077316314 0.108875535 -0.08825413 0.07234393
0001d0 c1 18 33 bd d6 b8 ab 3e a8 f1 c4 be 93 28 08 bf
       -0.04372478 0.33539456 -0.3846562 -0.5318691
0001e0 05 6b ea 3e 3b 05 ca 3e 17 09 23 3f 0d dd 20 bf
       0.45784774 0.39457116 0.63685745 -0.62837297
0001f0 ff fc 67 bd b1 52 ab bc b1 33 68 3e a1 be 16 3f
       -0.05663776 -0.020913454 0.22675969 0.58884627
000200 09 41 87 3f e8 d3 5c 3f f6 a5 15 be b5 b5 96 bf
       1.0566722 0.86260843 -0.1461409 -1.1774203
000210 e8 33 d3 be 3c 50 65 bf 45 01 6e c0 31 55 63 bf
       -0.4125054 -0.8957555 -3.7188275 -0.88801867
000220 2a 7e a2 bf 9f c9 72 bf b0 b6 a1 3f 89 6a 9f 3d
       -1.2694752 -0.948389 1.2633877 0.07783992
000230 01 ef 92 be 6b ef 6e 3f 21 4f 2f 3f 3d 73 4f bd
       -0.2869797 0.9333407 0.68480116 -0.05064701
000240 c3 8e 5e 3c 0a 33 ba bb bb e6 5e 3d b4 cc 0b 3e
       0.013583842 -0.005682354 0.05441926 0.13652307
000250 0c d6 cd 3d 42 69 0f 3e 0f f3 86 3d 33 b2 93 3e
       0.10050592 0.14004996 0.065893285 0.28846893
000260 12 18 19 bb 0a 5b 7f bc 96 b1 0d 3f d4 2f 6e 3e
       -0.0023360294 -0.01558567 0.553491 0.23260432
000270 92 83 41 3e 7f 16 9a bf cd 79 27 c0 44 e5 01 bf
       0.18897846 -1.2038115 -2.6168091 -0.50740457
000280 b3 17 f6 bf 97 c3 e7 bf a6 97 7a 3d 08 44 94 be
       -1.9225982 -1.8106564 0.06117978 -0.28958154
000290 f8 8b ca 3d fd 3f b9 bf ba 75 9b 3e 4c 40 fd bb
       0.09889978 -1.4472653 0.30363256 -0.007728612
0002a0 32 b3 01 3f ea 23 b1 3f 28 be a2 3e 68 ff c1 be
       0.50664055 1.3839085 0.31785703 -0.37890172
0002b0 c7 7c 87 3e 71 49 95 bf 5a 53 7f 3f df dc 6a be
       0.26462385 -1.1663038 0.9973656 -0.22935818
0002c0 da 90 17 bf c5 24 28 3e be 96 64 be cc 42 f0 be
       -0.592054 0.16420276 -0.22323129 -0.46925962
0002d0 4d 0f 84 3e 3d fe 0f bf 7e 22 37 be c2 e7 84 3f
       0.25792924 -0.5624731 -0.17884251 1.0383227
0002e0 92 77 b9 3b c9 b6 ac 3e 26 d1 34 3f 19 9a bd be
       0.005660006 0.33733204 0.70631635 -0.3703163
0002f0 54 52 8e be 5c bc 03 bf bb 08 8a bf 24 97 03 c0
       -0.27797186 -0.5145929 -1.0783914 -2.0561
000300 48 99 2d bc 58 e4 9f be 0f 3e 04 bf 75 6b 97 3f
       -0.010595627 -0.312289 -0.51657194 1.1829668
000310 92 27 62 be 54 8c 82 bf ca e0 01 be 00 e7 0c 3d
       -0.22085407 -1.0199075 -0.12683406 0.034399986
000320 cf 22 3f bd 5f 3d 41 bd ef db 72 bd 68 85 d9 bd
       -0.046664055 -0.04717767 -0.059291776 -0.10621148
000330 0b b2 07 bc 49 58 28 bc fd 27 84 be 51 fe 79 3e
       -0.008282195 -0.010274955 -0.2581176 0.2441342
000340 9d 0b e1 3e cc f8 24 3e 21 89 82 3e 16 c1 36 bf
       0.43954173 0.16110533 0.25495246 -0.71388376
000350 dc df e2 bf da e5 a7 bf e3 f3 a2 bf af 42 7a bf
       -1.7724566 -1.311702 -1.2730678 -0.97758
000360 ff 9d ac 3d d7 30 5e bf 31 05 0d bf 02 99 8c 3e
       0.08428573 -0.86793274 -0.55086046 0.27460486
000370 cf 83 be be 84 17 30 bf 0b 02 dd bd a2 57 c7 3e
       -0.37209937 -0.6878588 -0.10791405 0.38934046
000380 f4 8a 89 bf ad 0d e1 bf ef 78 16 bd 30 27 a6 3e
       -1.074553 -1.7582299 -0.036736425 0.32451773
000390 b7 52 4f 3c d4 36 0c 3e ce b5 9b 3f 21 c7 d6 be
       0.012653998 0.1369279 1.2164857 -0.41948798
0003a0 60 fe f7 3c 7c 7a c9 3f dd b1 e9 3d 4d 46 54 3a
       0.030272663 1.5740504 0.11410878 0.0008097634
0003b0 30 d5 21 bc b4 c5 7d 3c 55 5c 39 3d 5c e3 20 3e
       -0.009877488 0.015489031 0.04525407 0.1571173
0003c0 60 df 09 bd 50 c3 0a 3c 21 09 66 bd 17 9d ed be
       -0.033660293 0.008469418 -0.05616105 -0.46408913
0003d0 4a 8a 18 3f 76 ff d5 3c 2c 5b f8 bd c8 33 3f bf
       0.5958601 0.02612279 -0.12126765 -0.74688387
0003e0 57 f0 38 bf 47 1c 27 40 52 7e d7 bd 7c c4 3e bf
       -0.7224173 2.611101 -0.105221406 -0.7451856
0003f0 cb 1a 88 bf 27 c6 70 be 2b fb a9 3e eb 8c e3 3e
       -1.0633177 -0.23513089 0.33199438 0.4444345

conv4.bias f4 [10]
000000 4a 1e 5b 3e bc e6 f2 3d fa 4c ce bd b9 70 27 bf
       0.21398273 0.11860415 -0.10073276 -0.65406376
000010 b6 44 3e 3e 05 17 11 3e 2e 23 9a 3d 29 81 27 3d
       0.18580899 0.14168938 0.07526241 0.04089466
000020 37 ff e9 bd c2 23 d1 bc
       -0.114256315 -0.025529746

norm.weight f4 [10]
000000 2d 26 b9 3e ec 9a 84 3e 0b 7a c0 3e 20 cf b2 3e
       0.36161938 0.25899446 0.3759311 0.3492365
000010 63 10 84 3e f4 98 bc 3e ca f2 92 3e 28 17 4f 3e
       0.25793752 0.36835444 0.28700858 0.20223677
000020 7b 0b 76 3e 44 ad 83 3e
       0.24027817 0.2571813

norm.bias f4 [10]
000000 d2 31 a7 be 62 98 96 be 75 35 bd be b7 6f ae be
       -0.32655197 -0.29413134 -0.36954847 -0.34069607
000010 6c fa 88 be 43 e4 d2 be e1 19 88 be 98 b6 34 be
       -0.26753557 -0.41189775 -0.26582244 -0.17647779
000020 2a c7 80 be 98 53 aa be
       -0.2515195 -0.33266902

norm.running_mean f4 [10]
000000 b3 bf 7f c3 2e 7a 9d c3 d6 be ff c3 aa 1b 95 c3
       -255.74883 -314.95453 -511.4909 -298.21613
000010 ba 29 6c c3 03 61 a9 c3 57 6f d8 c3 12 b6 d0 c2
       -236.163 -338.7579 -432.86984 -104.355606
000020 4d 02 9d c3 23 e0 62 c3
       -314.01797 -226.87553

norm.running_var f4 [10]
000000 e1 e7 70 47 77 70 e9 46 bd f2 19 47 b9 59 1b 47
       61671.88 29880.232 39410.74 39769.723
000010 c4 cd 91 46 93 d9 1e 47 6e 6b 3b 47 5f 79 a1 46
       18662.883 40665.574 47979.43 20668.686
000020 29 9b c6 46 38 6b d8 46
       25421.58 27701.61

fc1.weight f4 [50, 810]
000000 15 9b 9e bf 5d 19 4b bf bf f3 76 bf ea 4f 4e bf
       -1.2391077 -0.79335576 -0.9646568 -0.8059069
000010 8d 36 17 bf 7a 70 ed bf a8 d2 09 c0 28 14 e3 bf
       -0.5906761 -1.854995 -2.1534824 -1.7740526
000020 8f 13 f5 bf 42 19 0e bf b6 1e f4 bf 3e 99 e5 bf
       -1.9146594 -0.5550729 -1.9071872 -1.7937391
000030 59 f9 20 3f f8 a1 f3 be 89 37 a6 bf 43 c4 b6 bf
       0.62880474 -0.4758451 -1.2985698 -1.4278644
000040 e4 f4 0f c0 15 9c 16 c0 ff 0b 5e be 7e 0c 80 be
       -2.249322 -2.3532765 -0.21684264 -0.2500953
000050 a2 75 86 bf 55 4e a7 3e c3 68 c1 bf f9 52 af bf
       -1.0504649 0.3267695 -1.5110096 -1.3697196
000060 00 1b 80 bf 97 97 64 bf 97 3f 85 bf 9d 27 5e 3e
       -1.000824 -0.8929381 -1.0410031 0.21694799
000070 03 46 11 3f 32 39 68 bf d2 c8 11 3f de 5e 0b 3f
       0.56747454 -0.90712273 0.5694705 0.5444163
000080 91 ba 43 3e bf 1b 2b bf 87 cc 80 be 12 da a6 be
       0.19114138 -0.6683921 -0.25156042 -0.3258825
000090 40 e7 f2 3e 19 d6 a2 be 16 4c 2c bf 42 7c 1d 3f
       0.47442055 -0.3180397 -0.673036 0.6151773
0000a0 88 1e e6 3e fd 0e 88 3e f2 88 e4 3e c3 3f 2b bf
       0.44945168 0.26573935 0.4463573 -0.6689417
0000b0 94 23 3e 3f 50 0e 6e 3e f6 73 17 3f 74 15 c2 be
       0.7427304 0.23247647 0.5916132 -0.37906992
0000c0 ba 47 39 3f 0b 5f df 3e 84 09 28 3f 92 60 d5 bf
       0.7237507 0.436272 0.6563952 -1.6670096
0000d0 fe 45 b7 be 84 c8 96 3e 8a 60 99 3f c5 18 58 3f
       -0.35795587 0.29449856 1.1982586 0.84412795
0000e0 00 87 04 3f 23 0b d1 bd 84 72 4c be 16 a2 26 bd
       0.51768494 -0.10207202 -0.19965559 -0.04068192
0000f0 fe e2 91 3d ed 5b 50 c0 55 59 30 c0 35 70 a9 bf
       0.071233734 -3.2556107 -2.7554524 -1.3237368
000100 0a c0 ed be c8 93 50 3e fa 78 dd 3e c6 dc 3d bf
       -0.46435577 0.20368874 0.4325636 -0.74165
000110 39 07 3d bf eb 75 34 c0 1b 84 c9 bf 73 a4 04 c0
       -0.73839146 -2.8196971 -1.574344 -2.0725372
000120 56 29 75 bf 30 98 89 3d 7c 6d 26 be 5e 10 7e bd
       -0.957662 0.067184806 -0.16252702 -0.062027328
000130 49 11 74 be aa 52 66 bf cb e7 05 c0 e0 a5 cc bf
       -0.23834719 -0.89969885 -2.0922725 -1.5988121
000140 6c 43 f9 bf 89 9a 17 3f 12 8a 39 3e ce c0 99 3e
       -1.94737 0.59220177 0.18119076 0.3002991
000150 85 43 dd bc 3f 4c 77 3f 87 b8 60 3e d9 b9 3d 3f
       -0.027009735 0.9660072 0.21945392 0.74111706
000160 e9 2d 0f 40 66 53 2e 3f 13 23 8c 3e 9a 27 6a bd
       2.2371771 0.68096006 0.2737051 -0.057166673
000170 ac 87 62 bf db d7 1c bf 74 ca a3 3f f9 ea 11 3f
       -0.8848827 -0.6126687 1.2796159 0.56999165
000180 a9 c5 0a 3f 5a be 90 3e 70 93 83 bd 06 20 92 3e
       0.54207855 0.28270227 -0.06424606 0.28540057
000190 f9 8e 88 bd fe 16 01 be b3 8f da be 99 62 41 3f
       -0.06667895 -0.12606427 -0.4268776 0.75541073
0001a0 54 94 5f bf 9c 2f 22 bf 1d 69 28 3f f9 4d c6 3e
       -0.87335706 -0.63353896 0.6578539 0.38731363
0001b0 65 42 56 bf 7b 40 a5 3e 96 df 40 3f 6b 6c b6 be
       -0.8369506 0.32275757 0.75341165 -0.3562959
0001c0 c5 e3 bc be 5f c1 e2 3e d9 ac df 3d 2f cc ad 3e
       -0.36892524 0.44288155 0.1092164 0.33944842
0001d0 58 37 5e 3e 57 2c 4e bf ba 4a c7 3d 28 2d e1 3e
       0.217008 -0.8053641 0.0973105 0.43979764
0001e0 40 aa 9c bd 50 0b f9 3e 16 c8 1a 3f 05 c9 64 3e
       -0.0764966 0.48641443 0.60461557 0.22342308
0001f0 21 43 64 bd 18 ec 8d 3e c5 71 a7 be de e9 2d bf
       -0.05572808 0.27719188 -0.32703987 -0.6793498
000200 50 fd 6c bd e8 29 59 3f f7 1b 9d be 12 32 8d bf
       -0.057858765 0.8482957 -0.30685398 -1.1030905
000210 b9 94 00 3f b2 f7 db be dc 79 0d 3e 62 96 81 bf
       0.5022693 -0.42962414 0.13816017 -1.0124018
000220 a5 ba 3d 3d 47 f0 78 bf 7d ef 0b bf cc 1a 0c c0
       0.046320576 -0.97241634 -0.54662305 -2.1891356
000230 72 69 27 bf 73 7d d4 3e 56 11 0e 3f 5c da 37 bd
       -0.6539527 0.4150196 0.554952 -0.044885978
000240 1b 5b 8d be f2 b9 a2 bf bf fe c3 bf b9 65 45 c0
       -0.2760857 -1.2712996 -1.5312117 -3.0843337
000250 35 51 4d bf e6 0a 86 bd 10 ee 97 3f 9d 08 05 3f
       -0.8020204 -0.065450475 1.1869526 0.5196627
000260 fb 4b 2f 3f 19 d3 0f bf 50 c7 f0 bf 92 c1 dd bf
       0.6847531 -0.56181484 -1.8810825 -1.7324698
000270 2c c9 b4 bf 08 59 7a bf e4 f2 55 3f c5 bf 68 3f
       -1.4123893 -0.977921 0.83573747 0.9091762
000280 c9 93 a7 3e a8 ab 56 3f 1c 6b 05 bc fb 2e dc 3c
       0.3272994 0.83855677 -0.008143213 0.02687787
000290 cc 57 b8 3e 2e 9a fc 3e 91 b3 c0 3e d4 06 77 3e
       0.36004484 0.4933638 0.37636998 0.24123698
0002a0 b0 8c 69 3f 22 c3 51 be 6f e3 57 bf cb 47 a3 3e
       0.912303 -0.20484594 -0.8433141 0.3189071
0002b0 8c 7d 6d be 24 19 cc 3f 07 a9 87 3f f7 8c 28 3e
       -0.23192424 1.5945172 1.0598458 0.16460024
0002c0 42 6b 9a 3d a5 fd 11 3f 96 b0 33 be 48 02 20 be
       0.07539989 0.57027656 -0.17547831 -0.1562587
0002d0 de 19 24 3e f9 53 18 bf 76 3d 57 3d d4 6e b6 bf
       0.16025493 -0.5950313 0.052548848 -1.4252572
0002e0 c0 9b 99 bf a8 1b fd be dc 02 e9 bc f5 66 c2 3f
       -1.2000656 -0.49435163 -0.028443746 1.518767
0002f0 e1 ce cb 3e 62 e9 d3 be 5f 6a eb 3e 7c b7 49 be
       0.39806274 -0.41388994 0.45979592 -0.196989
000300 7f 5b 1f be 61 59 44 bf 3b c9 6c 3e ee 56 38 be
       -0.15562247 -0.7669888 0.23123638 -0.18001911
000310 a0 e6 f4 bd f0 68 13 bf 0d e6 23 3f a6 4a 61 3e
       -0.11958051 -0.57581997 0.64022905 0.22001132
000320 28 4e 5e 3e 4f d7 91 3e 90 c6 32 3f 7e b3 ab 3f
       0.21709502 0.2848458 0.6983423 1.3414152
000330 e5 e7 12 bf a9 f1 c0 bf 8a 0c 50 bf 5b 94 22 bf
       -0.5738509 -1.5073749 -0.81269133 -0.6350762
000340 25 9f 20 be b9 dd 28 3f 26 06 a8 3f b6 57 43 3f
       -0.15685709 0.6596332 1.3126876 0.7630571
000350 41 ee da 3e 4f 06 92 bf ca 45 c3 ba 24 c3 0a be
       0.42759898 -1.1408175 -0.0014898118 -0.13551003
000360 8c d2 a3 bd 1d a9 c0 3e 76 4b f3 3f 62 06 b4 3f
       -0.07999143 0.37629023 1.9007404 1.4064448
000370 0c f4 ab 3d 6c 21 b5 bf 44 56 96 be f4 e6 b3 be
       0.083961576 -1.4150825 -0.2936269 -0.3513714
000380 b7 21 c8 bf c4 ef 0e bf 8b 88 a0 bd 4f 04 30 3f
       -1.5635289 -0.55834603 -0.078385435 0.68756574
000390 5d 41 54 3d ed da d9 bd f6 ea 88 3d 8c e4 5f be
       0.051820148 -0.1063746 0.0668544 -0.21864527
0003a0 cc 89 ef be c5 42 8a bf 0f 34 ad bf 99 3a e1 bf
       -0.46784818 -1.0801626 -1.3531512 -1.7596008
0003b0 3b ee 12 c0 c5 50 b4 be 1e 37 05 be 24 f5 1b bf
       -2.2957904 -0.35217872 -0.13009307 -0.6092093
0003c0 01 e1 68 bf eb 58 50 bf c3 16 b2 be 9e c2 13 3f
       -0.9096833 -0.8138568 -0.3478299 0.5771884
0003d0 a4 75 0e 3f 17 3b b7 bf ef c1 4a 3f ea 01 59 3e
       0.55648255 -1.4314908 0.7920217 0.21192136
0003e0 ac 4c f9 be e1 b9 a0 be d7 77 86 bf b9 07 35 be
       -0.48691308 -0.31391814 -1.0505322 -0.17678727
0003f0 81 49 aa 3e 6e c2 1c 3e de 7c 23 3e 3d 1c 83 3f
       0.33259204 0.15308544 0.15965602 1.0242993

fc1.bias f4 [50]
000000 b8 98 2a 3f f8 28 e1 be 68 a0 99 3f 0f ea 2a 3f
       0.6663928 -0.4397657 1.2002077 0.66763395
000010 1e 23 f3 bc bd ae e6 bc a7 95 b2 3e da 7c e4 3f
       -0.029679831 -0.028159494 0.348798 1.7850602
000020 72 74 3e be 78 4d 06 be 0e 1b aa bc 35 0f 2f be
       -0.18599108 -0.1311549 -0.020764854 -0.17095645
000030 74 38 ea 3f 24 bf d7 3f c7 24 ec 3f f9 13 54 bc
       1.8298478 1.6855206 1.8448724 -0.012944215
000040 54 3a 25 3f 92 e2 01 bc d8 18 e3 3f d7 7b 12 bc
       0.64542127 -0.007927554 1.7741957 -0.0089406585
000050 72 13 e6 3e 29 9a 1c be df 60 48 be 34 a9 a4 3f
       0.4493671 -0.15293182 -0.19568203 1.2864137
000060 db c5 0e 3f 92 8a 57 be 2b 99 37 bf de 7e 11 40
       0.55770653 -0.21048954 -0.7171809 2.2733684
000070 df 11 e8 bd 0e d3 eb 3e d4 e6 a4 bc 16 4d 15 bc
       -0.11331534 0.4605946 -0.020129599 -0.009112617
000080 2f 92 b8 bd df aa 16 bd 97 60 6b be 8f 1d 81 bc
       -0.09012257 -0.03678405 -0.22986065 -0.015761165
000090 e0 86 8d bd 4b bf 27 3f 6b 02 94 3e 4d d6 b5 bd
       -0.06910491 0.65526265 0.28908095 -0.08878765
0000a0 17 17 82 3f 8c b1 48 bd 1c a7 e2 3f 65 88 10 bd
       1.0163296 -0.048997447 1.7707248 -0.035286326
0000b0 3a 9b 09 bd 3c c5 c5 bc 8e a5 24 3e c8 35 ae 3f
       -0.0335953 -0.0241419 0.16078779 1.3610163
0000c0 ae ee 05 bd 64 8d 5e 3f
       -0.032698326 0.86934495

fc2.weight f4 [7, 50]
000000 41 cc dd be db 11 43 be 96 77 40 bd 06 f9 12 be
       -0.43319896 -0.1904978 -0.046989046 -0.14352807
000010 c0 49 a7 3d 84 63 66 3d 91 5b 38 be 7a f7 5b 3d
       0.081683636 0.05624725 -0.1800368 0.05370281
000020 bf c7 b6 bd 91 b5 ae 3e 09 16 05 3d af 77 cd 3d
       -0.08924817 0.341229 0.032491717 0.100325935
000030 fa 18 df 3e d0 f7 a2 3d 47 6d 50 bc 39 c5 bf bd
       0.43573743 0.07957423 -0.012721366 -0.09363789
000040 2f a9 8c bd 17 49 2f 3d 5c c0 b3 be b8 fc 76 3b
       -0.06868207 0.042794313 -0.35107696 0.0037687253
000050 5d 5b 0a bf 2a 09 c7 3d 1a 99 b7 3e df 06 76 be
       -0.5404566 0.09718545 0.35858995 -0.24026059
000060 dd eb 31 3d d7 cb c4 bd 24 8d 79 bd a4 b3 a5 3c
       0.043437827 -0.09609192 -0.060925618 0.02022726
000070 3b 78 68 3d ba e1 08 3e 50 78 07 3e 47 35 b8 bb
       0.056755286 0.13367358 0.1322949 -0.0056215855
000080 b3 b3 19 be 12 3a d8 bd 0a 98 a6 bd e8 ee f1 3d
       -0.15009956 -0.10557951 -0.08134468 0.11813146
000090 85 b8 3e 3b fe cb da 3d 25 58 dc be 9f 89 4d 3d
       0.0029101681 0.1068344 -0.43036 0.050180074
0000a0 c4 f4 bc bd 16 18 ac 3a 2c be c2 3b be e9 91 bd
       -0.09226373 0.0013129737 0.0059430804 -0.07124661
0000b0 f2 fc b0 bd 63 2a 9d bd e8 85 1e be 9d 9c 6b be
       -0.086419955 -0.076741 -0.15480769 -0.23008962
0000c0 70 4e 0d 3d e3 af 49 bd c1 ad e4 be 0a 74 c8 be
       0.034498632 -0.049240004 -0.44663814 -0.3915103
0000d0 b4 31 90 be b9 c2 8e be bd a4 a0 ba 99 50 d3 3d
       -0.2816292 -0.27882937 -0.0012256127 0.10318107
0000e0 f0 2a 0e bf 31 5b 6c bf e6 4e 6f bc b5 7b 00 3e
       -0.5553427 -0.9232665 -0.014606213 0.1254719
0000f0 5e 45 9f 3d 06 5a 5a bd 61 1c 89 be 0a 1e bc 3e
       0.077769026 -0.05330851 -0.26779464 0.36741668
000100 5d ae d9 3e d4 0e 45 3d b2 71 e9 bd 66 7b f9 bf
       0.4251584 0.048109844 -0.11398639 -1.9490783
000110 f2 f6 c7 3e 17 86 08 bd 93 a0 cd bf 06 98 a5 3d
       0.39055592 -0.033331003 -1.6064628 0.08085637
000120 89 c0 88 be 49 bb 95 be 5a 72 c6 be 05 97 8b bd
       -0.26709393 -0.2924445 -0.38759118 -0.06815914
000130 77 75 18 bf b6 3e 0c bf 45 06 bd 3d 25 dd 24 be
       -0.5955424 -0.5478319 0.092297114 -0.16099985
000140 52 2d 98 3d 4e b0 d7 3d 1a 7b 58 bf b3 bd a4 3c
       0.07430519 0.10531674 -0.8456284 0.020109987
000150 20 20 02 3d 95 fc 89 3c 11 b6 c9 bd 97 3e 9a be
       0.031768918 0.016844073 -0.098491795 -0.30125877
000160 f4 8c a9 bf 64 e2 53 3d 0e 0a 89 bf 50 01 da 3d
       -1.324614 0.051729575 -1.0706193 0.106447816
000170 6c 7b 8f be 91 ca 96 3d ad bc d1 bd 2f 3c a9 bd
       -0.2802385 0.07362855 -0.10241065 -0.08263432
000180 5f ab 00 3e 0d 9e a7 be 3b d3 82 bc 0e 7f 65 3e
       0.12565373 -0.3273777 -0.015969863 0.22411749
000190 67 3b 00 bf c0 a2 54 be 83 3f 03 3e ac 2f e9 3e
       -0.5009064 -0.20765209 0.12817197 0.45544183
0001a0 73 fb 48 3d 68 8f 2f bd 7a 99 3b bb 5c bb 1a 3d
       0.049067926 -0.042861372 -0.0028625415 0.037776336
0001b0 ff db d2 bd a3 be 27 bd 9b 1e 7e 3d ac 54 f5 bd
       -0.10295867 -0.04095329 0.062040906 -0.119790405
0001c0 09 0e fa bd 91 3b 40 3e 83 41 21 be a8 20 e7 bb
       -0.12209708 0.18772723 -0.15747647 -0.0070534535
0001d0 35 3a 42 be 66 a3 07 bf fb e1 ba bd d0 d1 ee bc
       -0.18967517 -0.529837 -0.091251336 -0.02915278
0001e0 18 0b 26 3f dd cb 84 3d d6 89 29 3e 87 25 51 be
       0.6486068 0.06484196 0.16556486 -0.20424472
0001f0 45 e4 9d bd ff 11 3d bd 28 2e b1 3e 58 d6 65 3d
       -0.077095546 -0.04615974 0.34605527 0.056112617
000200 2f 8f 11 3d f6 53 9b be a2 20 b5 3d c5 16 18 bc
       0.03553694 -0.30337495 0.08844115 -0.009282772
000210 22 27 cc 3e 62 00 9a bd 7e 5f 79 bd 10 fc 2e 3d
       0.39873606 -0.07519604 -0.060882084 0.042720854
000220 71 af 5d bd a3 36 6c 3e 9f 53 9e 3e f3 97 cb 3d
       -0.054122392 0.23067717 0.30923173 0.099410914
000230 0f 5e 93 be 4b 93 6f bd 3f d3 0a bd 05 91 ba 3c
       -0.287827 -0.05849008 -0.033892866 0.022774229
000240 01 41 46 bd ec 8e 7b bc 30 ed a8 3e 72 f8 51 be
       -0.048401836 -0.015353899 0.3299346 -0.2050493
000250 d4 ad a2 bc a5 41 f1 bc df 85 16 bf 9e a9 ab 3e
       -0.019858278 -0.029450247 -0.5879802 0.33527845
000260 3d b4 4f be f4 14 03 be 6d cf d9 3d 74 bf 02 3d
       -0.20283599 -0.12800962 0.106352665 0.031920865
000270 3b ea 84 3e 0b fb 04 3e 42 27 da 3d bc 4c 39 be
       0.25959954 0.1298639 0.10652019 -0.18095678
000280 53 ff bd bd 88 a6 cb bd 5a 4e 83 3b e6 ec a4 be
       -0.09277215 -0.09943873 0.004007143 -0.3221199
000290 ab 0b 77 bd ab 95 40 3d d6 ca e3 3e 88 60 51 bf
       -0.06031386 0.047017734 0.4449069 -0.8178792
0002a0 51 99 80 be 0d be 67 3c 08 31 2a bf a9 2a d1 bd
       -0.2511697 0.014144433 -0.66481066 -0.10213215
0002b0 ec de 71 be 89 5e 3b be ef 7c dc 3e a8 8c 31 bd
       -0.23620194 -0.18297781 0.43064067 -0.04334703
0002c0 8d fc 31 bf dd 83 08 bf 65 d1 00 3e 48 04 a6 bd
       -0.69525987 -0.5332621 0.12579878 -0.08106285
0002d0 9b dc ab 3c ed 6b 0d 3e f5 fa 2d bf 01 44 bf bd
       0.020979216 0.13810702 -0.67961055 -0.093391426
0002e0 de d3 e0 bd ab b5 77 3d 05 69 d6 bd c4 02 a9 bd
       -0.109779105 0.060475986 -0.1046925 -0.082524806
0002f0 22 4a bc be a4 0e 01 bc 7c 8b 51 bd 42 87 14 3e
       -0.3677531 -0.007877026 -0.051158413 0.14504722
000300 f7 17 d6 bd 4d 8e 81 bc 6b 63 a0 bd d7 a0 bd 3c
       -0.1045379 -0.015814925 -0.078314625 0.023147983
000310 1e 74 8d be 3d 93 d5 3e 11 68 76 3d 1a 86 9f 3e
       -0.27627653 0.41713896 0.06015784 0.31157
000320 84 08 d6 3d ac 53 2b be 0b ea 1e be a9 6b 3c bd
       0.10450843 -0.16731137 -0.15518968 -0.04600111
000330 db 1e 9d 3c b8 39 27 3e dd 34 55 be 0e bd 12 3e
       0.019179752 0.16330612 -0.20820947 0.14329931
000340 a8 17 e0 3d 7e d0 a0 bd 67 3d e3 3d ad b5 2a be
       0.10942012 -0.07852267 0.11095696 -0.16670866
000350 31 b2 a5 bc fe 4e 27 3e 83 61 43 bd 63 a8 46 3d
       -0.02022657 0.16338727 -0.047700416 0.04850043
000360 b6 72 61 be 14 a5 42 bf fb 7a b5 be 95 ad 89 bc
       -0.22016415 -0.7603314 -0.3544539 -0.016806403
000370 7f ae 7c bf c0 10 62 bd ef b4 c2 be f5 dd 57 3e
       -0.9870376 -0.055191755 -0.38028666 0.21080764
000380 48 43 0f be 72 03 f2 3c 9d 2f 6d be cd 31 98 3c
       -0.1399051 0.029542658 -0.23162694 0.018578434
000390 aa 4c 5d bd 00 66 84 bd 74 c2 2a bd ff b3 c2 bd
       -0.05402819 -0.064647675 -0.04168935 -0.09506988
0003a0 39 ab 9f 3e f2 3d d4 bc c3 5b ed bd fc a4 35 3d
       0.3118532 -0.025908444 -0.11589768 0.044346794
0003b0 93 cc aa bd f9 99 83 be c7 f7 86 3d 9e a3 bc 3d
       -0.08339801 -0.2570341 0.065902285 0.09210895
0003c0 aa fe c1 bb 13 5c 7e 3d 89 21 be ba 58 5f 28 bc
       -0.005920251 0.062099528 -0.0014505844 -0.010276638
0003d0 71 01 b0 3d 53 48 c3 3d 15 31 24 3e c2 4d 72 be
       0.08594025 0.09535279 0.16034348 -0.23662475
0003e0 56 e7 54 bb d9 c1 07 3e a1 9c 15 bf d9 d5 2c bd
       -0.003248652 0.13257541 -0.5844212 -0.04219613
0003f0 b5 2e 24 3f 44 2e 4f bd b6 aa 9a bd 01 a9 08 3d
       0.6413377 -0.05058123 -0.07552092 0.0333643

fc2.bias f4 [7]
000000 3c b8 a8 bd 5e f5 f4 3d 2f 09 fc 3d 6b 96 d7 bd
       -0.08238265 0.119608626 0.12306439 -0.10526737
000010 db 3c f4 3e f3 20 82 bd 11 00 9e 3c
       0.4770268 -0.06353941 0.019287141

localization.0.weight f4 [8, 1, 7, 7]
000000 cc 42 11 3e e9 fb 8e bb e1 33 7d bc 1b e1 2e bc
       0.14185637 -0.004363526 -0.015454263 -0.0106737865
000010 d0 60 18 3e 7f ad 2b 3e 97 ca eb 3d 99 49 06 be
       0.14880681 0.16765402 0.1151325 -0.13114013
000020 61 82 64 bb 93 c3 56 bc 55 83 a8 3d 0d 33 10 3e
       -0.003486775 -0.013108152 0.082281746 0.14081974
000030 30 73 a5 bc e1 09 6a bd 53 2b 09 be d5 59 30 be
       -0.020196527 -0.057138328 -0.13395433 -0.17221768
000040 53 9c 95 3d 98 d2 d8 3d 8e 23 a8 3d b2 a8 9a bd
       0.07305207 0.105870426 0.082099065 -0.07551707
000050 48 25 4b bd ce c6 4d 3d bb 82 08 bd 40 69 8c 3d
       -0.0495961 0.050238423 -0.0333278 0.06856012
000060 53 f7 44 3e 15 3c 32 bd c1 e2 14 3e b2 fe 0c be
       0.19234972 -0.04351433 0.14539625 -0.13769034
000070 1e a6 3b 3d b5 f8 e3 bd f0 88 fc 3b 16 3b 3c 3e
       0.04581272 -0.111314215 0.007706754 0.18381914
000080 f1 f1 98 3c 97 09 ab 3d 6d 82 23 3d f2 1d 5c 3d
       0.018670054 0.083514385 0.039919306 0.053739496
000090 8d d5 36 3e 84 eb 8d 3c 0a 12 83 bd 15 47 42 3e
       0.178549 0.017324217 -0.06399925 0.18972428
0000a0 d1 04 22 3e f2 54 98 bd 4a 0c c8 3c 96 6d a5 3d
       0.1582215 -0.07438077 0.024419922 0.080775425
0000b0 3a 30 6c bd c2 2b 67 3d 81 84 b4 3d 87 50 49 3d
       -0.05766318 0.056438215 0.088143356 0.049149062
0000c0 77 2d 0e be d5 ff 8a 3d a6 ab 9a bd d6 9b 15 3e
       -0.13884531 0.06787077 -0.075522706 0.14610228
0000d0 95 d8 15 3e 33 08 90 3d fa b1 0d bd cb 14 77 3d
       0.146334 0.07032814 -0.03459356 0.060322564
0000e0 5a cd f3 3d 3f bc 46 3e 2f 25 90 bc 2e 8a 06 3e
       0.11904402 0.19407748 -0.017595856 0.13138649
0000f0 a7 f3 43 3e 1c 50 92 3d 71 25 af 3c b1 a9 47 3e
       0.19135915 0.07144186 0.021380158 0.19498326
000100 8c 80 04 3d c4 dd 60 bd fa b3 52 bc ba 52 4d 3e
       0.032349154 -0.054898992 -0.012860293 0.20051089
000110 0e 76 ae 3d 98 fb d8 3d 68 8b 69 3d ef 48 2e 3e
       0.08518611 0.10594863 0.057017714 0.1702001
000120 57 9f 93 3c 13 f2 82 3d 2b f3 a3 bc c6 a3 3e 3c
       0.018020315 0.06393828 -0.020013412 0.011635726
000130 24 48 c4 bc c7 e5 21 bd 6f 12 28 3e 66 75 0f 3e
       -0.02396018 -0.039525773 0.16413282 0.14009628
000140 c0 bf 89 bd 62 cc 14 3e 95 52 8f 3d 2a 55 70 3c
       -0.067260265 0.14531091 0.06998173 0.014668742
000150 64 1f 98 bd 3e fc 9c bc f8 6c 36 3e 76 99 9f 3d
       -0.07427862 -0.019163247 0.17815006 0.07792942
000160 1b 07 8f bb 24 20 04 3d 39 af f7 3c ef 01 7f 3d
       -0.0043648607 0.032257214 0.03023492 0.062257703
000170 4f 64 3a 3d db 01 17 3e 81 15 4b 3e 2d ef 16 3e
       0.045505818 0.14746802 0.19832422 0.14739676
000180 9c 03 80 bd 2d 27 b6 3d 18 5d 8b 3d 43 69 0a 3e
       -0.062506884 0.08894191 0.068048656 0.13516717
000190 aa 3a de 3d 9e ef 2a bd e5 de e5 3d c7 cc af bd
       0.10851033 -0.041732423 0.112241544 -0.0858398
0001a0 e4 64 9f 3d 1e 51 de 3d fc c6 21 3e 28 29 3e bc
       0.07782915 0.108553156 0.15798563 -0.011606492
0001b0 a1 7e 98 bc f8 13 ca bd a9 3d 07 3c 39 51 8a 3d
       -0.018615069 -0.0986709 0.008254447 0.06753773
0001c0 1b 3f 13 3e 2c 0a ed 3d 71 76 a2 3d 27 57 be 3c
       0.14379542 0.11574206 0.07932747 0.023234917
0001d0 b5 b5 c1 bc 86 09 a6 3c d0 1e 0f 3d ce 3b dd bd
       -0.023646215 0.020268213 0.034941494 -0.108024225
0001e0 4f a1 ac 3d d1 16 99 3d 4c c9 63 bd 3f a7 80 bd
       0.08429205 0.07475055 -0.055611894 -0.062819
0001f0 a4 e0 28 3e 4f 7d 32 3e dd fb 7f bd c0 7b 8b 3d
       0.16491944 0.17430614 -0.062496055 0.06810713
000200 70 67 a8 bc 59 44 0c 3e de e6 81 3d 38 62 68 3c
       -0.020557135 0.13697948 0.063428625 0.014183573
000210 ff e5 f9 3d 82 1b 3a 3e 79 81 42 bd 00 ef 09 3e
       0.122020714 0.18174556 -0.047486756 0.13470078
000220 13 25 9f 3c 54 0f 39 3e 40 76 9c bc 2a 82 32 3e
       0.019426858 0.18072253 -0.019099355 0.17432466
000230 79 4c 61 3c bf bb 75 bd c5 9c 47 3e 3a 8b ed 3d
       0.013751143 -0.0599935 0.19493397 0.11598821
000240 85 7d a4 bd 12 45 c5 3c f4 19 4a bd 24 b7 79 be
       -0.080317535 0.024080787 -0.049341157 -0.24386269
000250 a4 c5 35 be dd ed 67 bd 70 7d fb 3c d5 e4 0c bc
       -0.17751175 -0.05662333 0.030699462 -0.00859948
000260 d3 df 0a 3d c1 7e 37 3c 9b b4 11 be d9 06 11 be
       0.03390486 0.011199654 -0.14229052 -0.14162768
000270 d2 a3 97 bd d2 46 f7 3c 5d 46 6e 3d ca 9c 1d 3d
       -0.07404293 0.030185137 0.058172572 0.038479604
000280 35 95 63 3d a1 20 61 3d e1 2d a8 bd 96 85 59 3d
       0.055562217 0.054962758 -0.08211876 0.053105913
000290 47 28 e1 bd 71 5f 28 be e6 2a ca 3c ff 1f 4e 3d
       -0.109940104 -0.16442658 0.024678659 0.050323483
0002a0 c8 c1 cb bd f5 9e 0d be 50 df 0e be 34 08 58 3d
       -0.0994907 -0.13830169 -0.13952374 0.052742198
0002b0 1b 14 e4 bc 47 5c f3 bc df 82 1a bd 8e 85 83 3d
       -0.027841618 -0.029707087 -0.037722465 0.06421958
0002c0 e0 f1 31 bb a7 ec 27 bd 44 f3 1d be 8a 7c 07 bb
       -0.0027152225 -0.040997174 -0.1542483 -0.0020673596
0002d0 75 8f a3 3d f4 35 e2 bd fe f2 49 bd 72 91 f6 bd
       0.07986347 -0.11045447 -0.049304 -0.1203946
0002e0 f3 da 6e 3d 69 40 0d be 23 ff 17 be d0 19 c6 3d
       0.058314275 -0.13794102 -0.1484342 0.09672892
0002f0 d9 8f 9d 3d e5 b2 33 3d 21 01 9d 3c 07 15 94 3d
       0.076934524 0.04387178 0.019165577 0.07230573
000300 13 ea 8c bd 28 2e 1d be e7 fd 1f bd bb 01 c6 3d
       -0.068805836 -0.15349638 -0.0390605 0.09668299
000310 11 41 3f be 55 b1 cd bc 2a c6 93 bc d1 49 eb 3c
       -0.18677165 -0.025108973 -0.018038828 0.028721722
000320 5d 80 a9 3d 5c 71 65 3d 8a 7b 80 3d 1b 14 74 3b
       0.082764365 0.05601631 0.06273563 0.003724343
000330 9f 41 51 be 8f 9e 0f be 9c 39 2d be b8 39 30 be
       -0.20435189 -0.14025329 -0.16916507 -0.17209518
000340 c3 08 c3 bb ac 51 90 3d e2 80 12 be bf b4 5a be
       -0.005951972 0.07046828 -0.14306977 -0.21358012
000350 7b 8b 3c be a0 d7 8f 3b 94 2d dc bd 2b 3c 0b be
       -0.18412583 0.004389718 -0.10750881 -0.13597171
000360 5d 6d b1 bd 56 61 8f bd b9 40 95 bc bc 5a 40 be
       -0.086634375 -0.07000987 -0.018219339 -0.18784612
000370 f9 e4 ab bd d2 fa e3 bc b6 23 1a be 55 50 67 3d
       -0.083932824 -0.027829561 -0.15052685 0.056473095
000380 60 5b 25 be 79 ff 5b bd 2f c0 8a 3d 34 0b cd bc
       -0.16148138 -0.053710435 0.06774937 -0.025029756
000390 c2 6a 8d 3d 0e ed 3f bd 62 6e 84 bc ec 2d 49 bd
       0.06905128 -0.046856932 -0.016165916 -0.04911606
0003a0 7c 80 87 bd 1c 88 89 3d 38 56 2e 3d 7a 26 5f 3d
       -0.06616303 0.06715414 0.042562693 0.054480053
0003b0 60 ef b1 bd 02 5d 00 be 9f a9 4f bd 28 eb cf bd
       -0.08688235 -0.1253548 -0.050698873 -0.10152274
0003c0 3d 8d 41 3d 30 71 f8 bd 97 36 2e bd 9b 1f 80 3d
       0.047253836 -0.12130964 -0.04253253 0.06256028
0003d0 fc 72 b3 bd 2f e4 15 3e 4e 9b 3e bc e0 fb cf ba
       -0.08762166 0.14637826 -0.011633707 -0.0015867911
0003e0 39 1d 12 bd 63 ef ba bc c5 26 85 bd 92 5d 12 bd
       -0.0356724 -0.022819227 -0.06501535 -0.035733767
0003f0 ef 85 97 3d de a2 06 bd 38 2d c3 bd c8 a4 0d 3c
       0.07398593 -0.032870166 -0.09530109 0.008645244

localization.0.bias f4 [8]
000000 3d 9b 09 be e9 84 01 be 63 bb f8 bd 3b 74 74 3d
       -0.13438125 -0.12648357 -0.12145116 0.05968116
000010 0a 09 94 3c 28 0f 10 be 34 32 7e 3d 2e 00 b4 b6
       0.018070716 -0.14068282 0.062059596 -5.364439e-06
